net_params.pkl (torch, 1951 bytes, 4 tensors)

fc1.weight f4 [20, 2]
000000 1a b0 31 3f 69 bd 91 3c 75 dc 55 3e c7 67 31 bf
       0.69409335 0.017790513 0.20884879 -0.69298977
000010 f8 b4 b7 be 08 2b 1a be 93 48 c2 bb 37 94 c5 be
       -0.35880256 -0.15055478 -0.0059290617 -0.3858964
000020 6c 51 c5 3e c8 7d 17 3f 68 9d 1a 3f b7 18 10 bd
       0.38538682 0.591763 0.6039643 -0.03517982
000030 96 2e 41 3e 4a 1b 40 3f 88 21 0e bf b8 ce 0c 3f
       0.18865427 0.7504164 -0.55519915 0.5500293
000040 cc 7b b3 be 87 60 ad 3e 76 a6 9e 3f 7e 4c 1a 3d
       -0.35055387 0.33862707 1.239455 0.037670605
000050 98 a1 0b 3f 67 12 50 bf 64 11 35 be 74 6e 85 3f
       0.5454345 -0.8127808 -0.17682415 1.0424333
000060 51 5a fc 3d 82 f8 00 3f 1f 43 da be 15 2f 17 bf
       0.12321914 0.5037919 -0.42629334 -0.59056216
000070 d2 5d 1b bf 93 b7 d0 3d a7 43 79 3e 19 41 0b bf
       -0.60690033 0.10191264 0.24342214 -0.54396206
000080 b7 de ec 3d 74 ab 16 bf f8 92 a0 be 0a 3e ef 3e
       0.11565917 -0.58855367 -0.31362128 0.4672702
000090 fc 41 20 3e 90 d0 a2 be 6a 1d 29 bf a4 6a 48 be
       0.15650171 -0.31799746 -0.6606051 -0.1957193

fc1.bias f4 [20]
000000 f2 69 d9 3e ee 65 f5 3e c8 e2 e9 3d 4e 83 ee 3e
       0.42463642 0.4792933 0.11420208 0.46584553
000010 b0 fc 1b bf ba ff 90 3e c7 ed 26 3f a3 cd 28 bf
       -0.60932446 0.28320104 0.6520657 -0.65938777
000020 a4 ac 31 be 29 89 99 be ad ee 90 be 68 71 da 3d
       -0.17351013 -0.29987457 -0.28307095 0.10666162
000030 cd fd 13 3f b0 98 4c 3e 00 62 cf ba f0 e9 00 3d
       0.57809144 0.1998012 -0.0015822053 0.0314731
000040 7e 2b a0 3e 68 66 11 bf 30 fe e4 3d d4 a1 15 bf
       0.31283182 -0.56796885 0.11181295 -0.58450055

fc2.weight f4 [2, 20]
000000 f0 c4 67 bd fc 6d 38 3e c0 91 85 bb 88 08 6c 3d
       -0.0565843 0.18010706 -0.0040762126 0.057625324
000010 00 c5 48 3d a6 dc 15 3e 00 38 c0 b9 ae cb b8 bd
       0.049016 0.14634952 -0.00036662817 -0.09023224
000020 70 7c 1c bd a6 5f 48 be c8 98 1d be c0 8e 4a be
       -0.03820461 -0.19567737 -0.15390313 -0.19781017
000030 65 45 55 be 12 b2 ad bd 6c fc 05 3e 86 f7 18 be
       -0.20827253 -0.0848123 0.13084573 -0.14938173
000040 c0 cc 10 3c e2 e9 1a be 34 e7 8a 3d 38 dc 74 3d
       0.008837879 -0.15128282 0.0678238 0.05978033
000050 b0 c5 9c bc 80 90 b5 3b 20 d1 2c 3e f0 e5 83 3d
       -0.019137233 0.0055409074 0.1687665 0.064403415
000060 4c 5c e3 3d 26 9c c8 bd 60 6d 13 3e c0 f2 f5 3c
       0.111015886 -0.09795408 0.14397192 0.030022979
000070 c4 2a a6 3d 88 c8 6a 3d 80 6f a2 3b 8e f7 02 be
       0.08113626 0.057320148 0.0049571395 -0.12789747
000080 80 4e 78 bb 70 db 85 bd 38 5b 36 3d 8e e0 0b be
       -0.0037888587 -0.06535995 0.044520587 -0.1365988
000090 30 40 a6 3c d0 e6 5d 3e 5c 8b 2a bd 24 7f 4d 3e
       0.020294279 0.21670079 -0.04163681 0.20068032

fc2.bias f4 [2]
000000 aa dd 46 be 8f 2b 48 be
       -0.19420496 -0.19547866
